model_rice.pt (torch, 36383 bytes, 4 tensors)

conv1.weight f4 [8, 3, 3, 3]
0	0xbe2402a3	-0.16016631
1	0x3e0365a2	0.12831739
2	0xbd95b52a	-0.07309945
3	0x3db4f567	0.08835869
4	0xbd63e921	-0.05564225
5	0xbba1b0f5	-0.004934425
6	0x3e00a6af	0.12563585
7	0xbdc5c7b5	-0.09657232
8	0xbe04f822	-0.1298528
9	0xbbc0afd8	-0.005880337
10	0x3d430a0d	0.047617007
11	0xbe3b02ed	-0.18262835
12	0x3c992fff	0.018699644
13	0xbdb0d625	-0.08634595
14	0xbd8927ff	-0.06697082
15	0xbd920dc6	-0.07131533
16	0x3e26a8c4	0.16275316
17	0x3dedbb68	0.116080105
18	0xbd808ee1	-0.06277252
19	0x3da1b021	0.07894922
20	0xbda2ee36	-0.079555914
21	0x3e140bfe	0.144577
22	0xbc7d650d	-0.015465987
23	0xbd250ffe	-0.040298454
24	0x3bf20b46	0.007386598
25	0x3dd09192	0.10184015
26	0xbe3b0d10	-0.18266702
27	0x3e8dbdae	0.27683777
28	0x3d965bfe	0.07341765
29	0xbd0a6ec9	-0.03379706
30	0x3d9135c5	0.07090334
31	0xbd6babe0	-0.05753696
32	0x3de5d720	0.112226725
33	0x3e7fc191	0.24976183
34	0xbd342163	-0.043977153
35	0xbd6a92e2	-0.057268985
36	0x3e466f9b	0.19378512
37	0x3cda8598	0.02667503
38	0x3e2c8d36	0.16850743
39	0xbca2dfb2	-0.019882057
40	0x3e2cc335	0.1687134
41	0x3e41545c	0.18879837
42	0x3d322fee	0.04350274
43	0x3d9c2406	0.076240584
44	0x3e509005	0.20367439
45	0x3eae4a41	0.34041026
46	0x3e5484ea	0.20753828
47	0x3ef749ba	0.48298436
48	0x3ea08c46	0.3135702
49	0x3ec9e1f9	0.39430216
50	0x3ee38821	0.44439796
51	0x3ebb5126	0.3658535
52	0x3ea1909a	0.31555635
53	0x3ef5cc9d	0.4800767
54	0x3d9fd8a2	0.07804991
55	0x3d43ebb8	0.04783222
56	0xbe445bb6	-0.1917561
57	0x3e1e712f	0.15472864
58	0xbd078a9c	-0.033091173
59	0x3dd6d49e	0.10489772
60	0xbe3b633e	-0.18299577
61	0x3d8ee052	0.069763795
62	0xbe0a31ed	-0.13495608
63	0xbe0cd5b5	-0.13753398
64	0xbd41a89c	-0.04727994
65	0xbc1072d0	-0.008816436
66	0xbe40c868	-0.18826449
67	0xbce8b510	-0.02840665
68	0xbddf10ef	-0.10891902
69	0x3ddf26ba	0.108960584
70	0x3e2b1cf5	0.16710265
71	0x3d1ce784	0.038306728
72	0x3dc47a06	0.095935866
73	0xbd970002	-0.07373048
74	0x3cb87380	0.022516012
75	0x3d127fd4	0.035766438
76	0xbd4a33e0	-0.049365878
77	0xbe372d21	-0.17888309
78	0x3e22bfd3	0.15893488
79	0xbe397820	-0.1811223
80	0x3e1af907	0.15134059
81	0xbe3d742d	-0.18501349
82	0x390de82a	0.00013533296
83	0xbd38e743	-0.045142423
84	0x3df72363	0.12067296
85	0xbe23fd25	-0.16014536
86	0xbdb9c23d	-0.09070251
87	0x3ded13f7	0.115760736
88	0x3d925da9	0.071467705
89	0xbd8b519f	-0.06802677
90	0x3dad5fd8	0.08465546
91	0xbdb77889	-0.08958537
92	0xbd8dfbd5	-0.06932799
93	0xbcd1a26b	-0.025590142
94	0xbe2e290c	-0.17007846
95	0xbd23dfaa	-0.040008225
96	0x3dec8235	0.115482725
97	0xbd8d98ed	-0.06913934
98	0xbe2686a2	-0.16262296
99	0x3e3b8c0d	0.18315144
100	0x3c7f7b7c	0.015593406
101	0xbe0412c3	-0.12897782
102	0xbdffd094	-0.12490955
103	0xbe29f900	-0.16598892
104	0xbe0ac6a5	-0.1355234
105	0xbe08850a	-0.13332
106	0xbdb58192	-0.08862604
107	0x3e2470a3	0.16058592
108	0xbdb1eb5b	-0.086874686
109	0xbe29ef90	-0.16595292
110	0x3dd13be9	0.10216505
111	0x3db1014d	0.08642826
112	0xbe185cd6	-0.14879164
113	0x3e31f1f0	0.17377448
114	0xbd89d83b	-0.06730696
115	0xbdb461a4	-0.08807686
116	0x3c73c821	0.014879257
117	0x3d46cf8c	0.048537776
118	0xbd71e4cb	-0.059056085
119	0xbe423dd6	-0.18968901
120	0x3dacb475	0.08432857
121	0xbe335735	-0.17513736
122	0xbe21abcb	-0.1578819
123	0xbceae61c	-0.028674178
124	0x3e1ead54	0.15495807
125	0x3c89e721	0.016833844
126	0x3d405b40	0.046962023
127	0x3e25f8e7	0.1620823
128	0x3c7e834f	0.015534236
129	0x3dc8d1dc	0.098056525
130	0xbe1cab4f	-0.15299724
131	0x3d8f048c	0.06983289
132	0x3e035a81	0.12827493
133	0xbe0b7b9e	-0.13621375
134	0x3e42a3ef	0.19007848
135	0x3e40d8f9	0.18832768
136	0x3e110f5b	0.14166014
137	0xbdf80f14	-0.12112251
138	0xbdae84e6	-0.08521442
139	0x3e1178ab	0.14206187
140	0x3d2885a1	0.041143063
141	0xbdbbd3ed	-0.09171281
142	0xbddabafd	-0.106801964
143	0xbe0f868f	-0.14016174
144	0xbd67ea52	-0.05661995
145	0xbe70147a	-0.23445311
146	0x3d9150ee	0.07095514
147	0x3cd41d55	0.025892893
148	0xbdb841d5	-0.089969315
149	0xbe40f34f	-0.18842815
150	0x3d983a6e	0.074330196
151	0x3d3f72ef	0.04674047
152	0x3d71d816	0.059043966
153	0x3e658f9d	0.22418065
154	0x3e96b9e1	0.2943869
155	0x3e966bb1	0.29379037
156	0xbd024afb	-0.03180979
157	0x3daac4ee	0.083383426
158	0x3e936567	0.287883
159	0x3de784b4	0.11304608
160	0x3de45db0	0.11150682
161	0x3d03aa8e	0.032145076
162	0x3e9e90aa	0.30969745
163	0x3ec16833	0.3777481
164	0x3ebf08c4	0.37311375
165	0x3e60e791	0.21963336
166	0x3e9034f9	0.28165415
167	0x3eba3b4e	0.3637337
168	0x3d8555f6	0.065105364
169	0x3ed0b802	0.40765387
170	0x3ecf368d	0.40471306
171	0x3f293442	0.66095364
172	0x3edec4d4	0.43509543
173	0x3ecbab98	0.39779353
174	0x3f0465e1	0.51717955
175	0x3f1bd08b	0.60865086
176	0x3f0cda64	0.5502074
177	0x3f106dc6	0.564175
178	0x3f3a5bf9	0.7279659
179	0x3eb5d480	0.35513687
180	0xbc0fec35	-0.0087843435
181	0xbe7c2d4d	-0.24626656
182	0xbd7c686e	-0.06162303
183	0xbe9390f9	-0.28821543
184	0x3e19decf	0.15026401
185	0xbe1e5e36	-0.15465626
186	0xbde00d42	-0.10940029
187	0xbe0a0947	-0.13480102
188	0xbe370423	-0.17872672
189	0x3e215d39	0.15758218
190	0xbd9e2c8b	-0.0772334
191	0x3e465fb3	0.19372444
192	0x3e072945	0.13199337
193	0xbd0ffff2	-0.035156198
194	0x3d14310e	0.036179595
195	0xbe272b3b	-0.16325085
196	0xbe12e094	-0.14343482
197	0xbd243340	-0.04008794
198	0xbdf61aeb	-0.12016853
199	0xbcec0de6	-0.028815221
200	0x3df57f4b	0.1198717
201	0x3e0dd064	0.13849026
202	0xbe13fc0a	-0.14451614
203	0x3e414ab1	0.18876149
204	0xbcabd2b5	-0.020974496
205	0xbcd31e68	-0.025771335
206	0x3dd30081	0.103028305
207	0xbe09934c	-0.13435096
208	0x3da3c659	0.07996816
209	0xbde260e2	-0.11053635
210	0xbd50d5e1	-0.05098522
211	0x3d6b3d4b	0.0574315
212	0x3b99ac27	0.0046897116
213	0xbdd27d7f	-0.10277843
214	0xbde66c0d	-0.11251078
215	0x3c1ba0cd	0.009498787

conv1.bias f4 [8]
0	0x3e2623f9	0.1622466
1	0x3e3f8314	0.18702346
2	0xbe30cd30	-0.17265773
3	0xbd042d0d	-0.032269526
4	0xbe24a0cf	-0.16076969
5	0x3e8ed385	0.27895752
6	0xbdfbd24a	-0.12295969
7	0x3d0696db	0.03285871

fc1.weight f4 [2, 4232]
0	0x3c8c7609	0.017146127
1	0x3c9c5904	0.019085415
2	0x3c47d1fd	0.012196061
3	0x3bdb3bdc	0.0066904854
4	0x3bd36ad2	0.006451943
5	0x3c2a777d	0.010404465
6	0xbba6c244	-0.0050890762
7	0x3c269604	0.010167602
8	0x3c9823ba	0.018571723
9	0xbbc77603	-0.006087066
10	0x3c7be206	0.015373712
11	0x3c6e0ebb	0.014529879
12	0x3b3c0035	0.0028686647
13	0xb9ddf9f3	-0.00042338631
14	0x3b9654a9	0.004587729
15	0xbbbb8444	-0.0057225544
16	0x3bc1b8b4	0.005911911
17	0x3c98b72e	0.018642034
18	0xba5544d4	-0.00081355614
19	0xbc0f7d59	-0.008757913
20	0x3bbbb615	0.005728493
21	0xbb71ec76	-0.0036914623
22	0x3c4e1527	0.012578285
23	0x3c2ab87f	0.010419964
24	0xbc0a7456	-0.008450588
25	0xbacfd448	-0.0015856111
26	0x3c97146f	0.01844236
27	0x3c8866e6	0.016650628
28	0x3bc27087	0.0059338245
29	0xbb90d9b8	-0.0044204853
30	0x3c329221	0.010899098
31	0xbbaeacba	-0.005330649
32	0x3c6e767a	0.014554614
33	0x3c81f6d4	0.015864767
34	0x3c255255	0.01009043
35	0xbc225e65	-0.009910201
36	0xbc0ed999	-0.0087188715
37	0xbba4d926	-0.005030769
38	0xb9f04665	-0.00045828815
39	0xbc196496	-0.00936236
40	0x3c29affe	0.010356901
41	0x3c9ae151	0.018906267
42	0x3b3d8db0	0.0028923564
43	0xbab8f3bb	-0.0014110723
44	0xbc1cb180	-0.009563804
45	0x3c8bf979	0.017086731
46	0x3c6f82f6	0.014618626
47	0xbbecc8c3	-0.007226081
48	0xbba599d8	-0.00505374
49	0x39634e53	0.00021677585
50	0xbc09027c	-0.008362409
51	0x3c256545	0.010094945
52	0x3ca22b29	0.019795971
53	0x3c7a9e5e	0.015296547
54	0x3a13cdf3	0.0005638294
55	0x3c095eaa	0.008384386
56	0x3c33ce1c	0.010974433
57	0x3b0c7dd1	0.0021437297
58	0xbb7c5651	-0.0038503597
59	0xbbb0fd96	-0.0054013235
60	0xbbc731b0	-0.0060789213
61	0x3ab534fa	0.0013824992
62	0x3c0ff89c	0.0087873
63	0x3c17390f	0.009229912
64	0x3b946ba0	0.0045294315
65	0x3be405a5	0.0069586807
66	0x3bda5e49	0.0066640717
67	0x3c7cb8c3	0.01542491
68	0x3bdf2787	0.006810132
69	0x3c71ce34	0.014758635
70	0x3c6182e5	0.013764118
71	0xbb503ebe	-0.0031775679
72	0xbbcfc713	-0.00634087
73	0x3c7ff5fa	0.01562261
74	0xbb1796df	-0.0023130698
75	0x3c33bf3e	0.010970889
76	0xba03e7ae	-0.00050317764
77	0x3c974203	0.018464094
78	0xbb2b3894	-0.0026126252
79	0xbb92c4ca	-0.0044790255
80	0xbaf1d841	-0.001845129
81	0xbaac1c30	-0.0013130959
82	0x3c9dc1de	0.019257482
83	0x3a8b05b4	0.0010606558
84	0x3c1d4a44	0.009600226
85	0x3c2197bb	0.0098628355
86	0xbbf11dad	-0.007358274
87	0x3c14da44	0.009085242
88	0xbb6e0f9a	-0.0036325217
89	0xbb5db0ec	-0.0033827377
90	0x3acec4f8	0.0015775254
91	0xbaa33806	-0.0012452609
92	0x3ca2a487	0.019853843
93	0x3c038c5b	0.008029069
94	0xbb950027	-0.0045471373
95	0xba9440fa	-0.0011310868
96	0x3c44db96	0.012015244
97	0x3b0d90ff	0.0021601317
98	0x3c22f800	0.009946823
99	0xbaf13ea4	-0.0018405509
100	0xbba6c24d	-0.0050890804
101	0xbbfa69e5	-0.007642018
102	0x3999b585	0.00029317677
103	0xbbac153f	-0.005251556
104	0x3c2866ed	0.010278446
105	0xbc30b197	-0.010784528
106	0x3bfdbb5e	0.007743283
107	0x3c8e88da	0.01739924
108	0x3c89eab4	0.016835548
109	0xbc156f6d	-0.009120804
110	0x3c0e0603	0.0086684255
111	0xbc19ac1d	-0.009379414
112	0x3c4418a9	0.01196877
113	0x3bdddbc4	0.006770583
114	0x3bbd3f86	0.005775395
115	0x3c7a6bb3	0.015284467
116	0xbbc1927f	-0.0059073563
117	0xb952caf6	-0.0002010277
118	0x3b055da8	0.0020350013
119	0x3c8dd821	0.017314972
120	0x3ca17cb7	0.019712789
121	0x3b380dcf	0.0028084402
122	0x3b6708ef	0.0035253128
123	0x3c4bfc63	0.01245031
124	0x3b40ad40	0.002940014
125	0x3c325274	0.010883916
126	0x3c0c7f31	0.008575247
127	0x3c611b5b	0.013739432
128	0x3c479804	0.012182239
129	0x3c42e910	0.011896387
130	0xbc1d1f21	-0.009589941
131	0xbb96f476	-0.0046067787
132	0x3c02f3be	0.007992683
133	0x3c9a3074	0.018821932
134	0x3b621e9a	0.0034503103
135	0x3c71fc68	0.014769651
136	0x3c519b0c	0.012793314
137	0x3ca2f2bd	0.019891137
138	0xbc237d8d	-0.009978664
139	0x39bba32c	0.00035788992
140	0xbc0222fc	-0.007942911
141	0x3a985cb4	0.0011624307
142	0xbac8c733	-0.0015318155
143	0x3c1b7b5d	0.009489861
144	0x3c4b8cd1	0.01242371
145	0xbbf8e446	-0.0075955717
146	0x3c42b9c5	0.011885111
147	0x3c08196b	0.008306841
148	0x3b0db1e1	0.0021620917
149	0xbbc6bfab	-0.006065329
150	0xbb1392fa	-0.0022518025
151	0x3b9bdffb	0.004756925
152	0xbb0dae72	-0.002161887
153	0xbc0cd596	-0.008595845
154	0x3c7a35f3	0.015271652
155	0xbbddd03b	-0.006769208
156	0x3c77c493	0.015122551
157	0x3bfb7dae	0.0076748943
158	0x3c4b5472	0.01241027
159	0xbb2412f1	-0.0025035704
160	0x3ca1320a	0.01967718
161	0x399dc801	0.00030094388
162	0xbb7d3b2f	-0.0038640012
163	0xbc1b6e0e	-0.009486688
164	0xb99ca13c	-0.00029874768
165	0x3c87b64e	0.016566422
166	0x3c92f61d	0.017939622
167	0x3b960aa1	0.004578904
168	0xbb9577bd	-0.004561393
169	0xbb535b20	-0.003225036
170	0xbc0b567c	-0.008504506
171	0xbc47201a	-0.01215365
172	0x3c66ab98	0.014078997
173	0x3c90c0b4	0.017670013
174	0xbbdd1ddd	-0.0067479447
175	0x3be20989	0.0068981093
176	0x3c4f2215	0.012642403
177	0x39f698a0	0.0004703449
178	0x3b87c8aa	0.004143794
179	0x3c82aff4	0.015953042
180	0x3b1919a3	0.0023361228
181	0x3c9b8eae	0.018988933
182	0x3c910d4a	0.017706532
183	0x3abc0ed4	0.0014347681
184	0x3bbdab9d	0.00578828
185	0x3c09718a	0.008388886
186	0x3bf65bb3	0.0075182556
187	0x3c58d19f	0.013233571
188	0x3c840e12	0.01611999
189	0x3ca32821	0.019916596
190	0x3b300acb	0.0026861902
191	0x3bf7020a	0.007538085
192	0xbaf3b26e	-0.0018592605
193	0x3c4c7c54	0.012480814
194	0x3baac73e	0.00521174
195	0xbc27e32e	-0.010247035
196	0xbb9bd606	-0.004755738
197	0x3b2496ab	0.002511422
198	0x3c70bed3	0.014693934
199	0xbc11096b	-0.008852343
200	0x3c8af55b	0.016962698
201	0x3c569709	0.013097533
202	0x3c2c0001	0.010498048
203	0xbc14fc96	-0.009093424
204	0x3c6387ca	0.013887355
205	0x3bb9996f	0.0056640427
206	0xbbf1b0af	-0.0073757987
207	0x3bd573b1	0.0065140356
208	0x3bf4317e	0.007452189
209	0x3c9b2bd2	0.018941794
210	0xbbb0597f	-0.0053817625
211	0x3c7b6e1d	0.015346077
212	0xbc0b2189	-0.008491882
213	0xbc250747	-0.010072536
214	0xbaa4066c	-0.0012514121
215	0x3c0c35a0	0.008557707
216	0xbc186dd8	-0.009303533
217	0xbc770f7a	-0.0150793735
218	0x3c47e832	0.012201356
219	0xbbdb466c	-0.0066917446
220	0x3bcc72ac	0.006239256
221	0xbc313307	-0.0108153885
222	0x3c6e7c6d	0.014556033
223	0xbb49a56c	-0.0030768765
224	0x3a8ec364	0.0010891971
225	0xbc0b0dc0	-0.008487165
226	0x3c2633ff	0.010144233
227	0x3c641bf3	0.013922679
228	0x39de3979	0.0004238596
229	0x3c60eb6d	0.013728005
230	0x3c832771	0.016010018
231	0xbb81d8d3	-0.003962615
232	0x3c51c8c6	0.012804216
233	0xbc1abede	-0.00944492
234	0x3c87ace4	0.016561933
235	0x3bb89c79	0.0056338874
236	0x3c7ef6e5	0.015561794
237	0xbba5fb1f	-0.0050653364
238	0xbaa187aa	-0.0012323756
239	0xbc3d07c1	-0.011537493
240	0xbb16cd74	-0.0023010643
241	0x3c40961e	0.011754541
242	0x3b9b703b	0.0047436035
243	0xb9edc124	-0.00045348064
244	0xbb1797a4	-0.0023131156
245	0x3bb9dd00	0.005672097
246	0x3befece4	0.0073219407
247	0xbb0eba03	-0.0021778352
248	0x3c0987f7	0.008394233
249	0x3c753220	0.014965564
250	0xbb90cc35	-0.0044188746
251	0x3bf54627	0.0074851695
252	0x3bb66657	0.005566399
253	0xbc0beacb	-0.008539866
254	0xbbf71e7b	-0.0075414754
255	0xbc3caa67	-0.011515236

fc1.bias f4 [2]
0	0xbce7a695	-0.028277675
1	0x3d021641	0.031759504
